workshop/model/weights_best.pth (torch, 874431 bytes, 6 tensors)

fc.1.block.linear.weight f4 [256, 784]
00000000: 0358 74be acb6 793d d312 04bf b8d7 05bf
00000010: 3975 d5be 0550 5cbe 1760 b4be 6c43 48be
00000020: b7de a5be d63f 17bf a651 07bf 4253 06bf
00000030: 4ba9 89be 8588 b83e 09dc 153f 8eee a93e
00000040: bef3 11bc a745 74be c631 a2be 848f cdbd
00000050: 8a40 0cbe 1969 aebc 7ea0 e33d 1b4e 033d
00000060: 8075 49bd 017a 92be 8eb1 39bd 1c95 39be
00000070: 157e bbbe 1841 eebc 7ccc a8be ed89 bfbe
00000080: cac8 0dbe a53a 213e 1143 473e cc3a 84be
00000090: 9d02 a8be 292c 8abe 78e0 09be 5773 aabc
000000a0: 66f5 873d 55c6 b63c 1abe 06be 0877 c73d
000000b0: c53e dd3d aa96 053e b765 7bbd f9e9 12be
000000c0: 1fa8 8abe ac79 cb3d 2693 033e 0563 813e
000000d0: 332a 793e 8334 e23d cb50 8e3e 20b4 83bc
000000e0: 35ae 1fbe 5036 0abe fd7e 1bbe 2874 3bbe
000000f0: 4137 60be 62ed 99bb acb1 d2bd 227e 28be
00000100: cb1b a2be 2624 e6be c7a3 76be bdde 7dbc
00000110: 01ad 1f3d 6d9b e7bd 675a 43be a89f c1bd
00000120: ad75 833c 7052 903a 455b d5bd a879 83bd
00000130: e798 36be b231 52be 6f97 2dbe 58fa c03c
00000140: 01bf dabc 6cb5 873e 5f93 243e 1869 1dbd
00000150: c889 19be efbc 8ebd 91e5 4c3c c86f 8dbe
00000160: 717e 6ebe 1397 e4bd 3450 3fbe 96eb 70be
00000170: 1d0d c3be b5e2 85be 1a00 99bd dc45 dabd
00000180: c3ad d2bc 5e4c 12bd b947 eebd b6e2 5fbd
00000190: 1488 e7bc f369 7abe f58e a9bd 5fe8 bfbd
000001a0: fdbb 3bbe f985 14be 14b1 39be e4e9 f5bc
000001b0: 84cf f4bb 8c2e 523e 36a7 a43e 33a6 0a3e
000001c0: 5850 043e e2cc 0d3e 45bd bf3c 583a 22be
000001d0: 51db 15be 5562 60be eb03 a3bd f7fd fcbd
000001e0: f7d1 3abe 1ac9 2dbe 8975 87bd 5acb 08be
000001f0: f044 5cbd 6699 3fbe ab67 56be 17ab 57be
00000200: ef75 f3bc 16e2 dcbd 60f2 83bd fe81 22be
00000210: 3adf dcbd 493e ddbc ba76 aabc ac16 a4bd
00000220: 8d0f 943d 03c4 493e 4c4c dd3e 1e02 c23e
00000230: 7b16 be3d 7ab8 fcba 4618 0dbe a088 3fbd
00000240: 2818 40be 9d19 eebd 79e3 acbd 69d4 ecbd
00000250: 1f57 febd b1a9 18be 5280 07be 09cf 23bd
00000260: b1d2 bc3c d029 0ebe 215a 35be 8e3b 1fbd
00000270: 550e e53c 233f c5bd 24d3 bcbc 0213 0cbe
00000280: f80e 28be 7a16 70bd a20d 993c 01a4 053e
00000290: 70dc 5c3d 59d4 dd3c ec70 8a3e f155 bf3e
000002a0: d9fa 19be ff6c 42be 07f4 a4be 0d91 8dbd
000002b0: 8c78 d2bd 0d46 1bbd dbb3 9bbd 7341 22bd
000002c0: 1ea7 b3bd 130e 04be ba71 07be d31d 06be
000002d0: 4579 01bd c467 07be 8082 10be a716 b0bd
000002e0: bf65 4ebd 11c0 10be afe3 9bbd 52ac 42bd
000002f0: 1ea2 40be 3ffe b1bd 8e27 14be f9e2 db3d
00000300: 3a3d e2bc 0674 5cbd c5a2 573e 145b 7c3e
00000310: ddeb be3d 1efd 86be 881a abbe 0e2b 8fbd
00000320: 51b6 66bd 1c5b a1bd 1f5d cbbd 3f47 4bbd
00000330: cdac e7bd 6653 8abd 7d73 143b 7f4b 1fbd
00000340: f5f8 95bd 8370 3cbe db05 86be 5182 61be
00000350: c7bd f8bd 20f7 0bbd 71b9 3b3d b635 023d
00000360: 2af7 dbbd 4da7 6dbe 3064 bebd 7ed4 e33d
00000370: 4a02 1a3e edc5 e83d 374b 7a3d 5837 bb3e
00000380: eccf 843e f56d 7ebe ea1b 2ebe 866d 5ebc
00000390: 8b5e 8cbd 1995 50bd e805 93bd 91d9 88bd
000003a0: e3e7 42bd cdc9 88bd d523 17bd 276c ca3c
000003b0: a3dd a63b 613a 34be b6d7 63be 6b7b 56be
000003c0: 2a08 9bbd 8640 0bbd b6b4 34bd d546 43bd
000003d0: c1f6 67be 3aad 80be b4be 2fbe c21e 823d
000003e0: 09f4 363e 7461 a73d a223 d53b ae83 d53e
000003f0: 3a83 b33e 7708 30be f097 69bd 7a61 893d
-0.23861699 0.060965225 -0.51591223 -0.52282286 -0.41690996 -0.215149 -0.3522956 -0.1955697
-0.3239648 -0.5908178 -0.5285896 -0.5247079 -0.26886973 0.36041656 0.5853887 0.33189815
-0.00890821 -0.23854695 -0.316786 -0.10037139 -0.13696495 -0.021290349 0.11114596 0.03205691
-0.049184322 -0.28608707 -0.045335345 -0.18123287 -0.3661963 -0.029083773 -0.3296851 -0.37409917
-0.13846126 0.15745027 0.19459178 -0.25826108 -0.32814494 -0.26986817 -0.13464534 -0.020806951
0.06638603 0.022311369 -0.13158455 0.097395 0.10802988 0.13045755 -0.0613763 -0.14347066
-0.2708139 0.099353164 0.12849101 0.25270858 0.24332504 0.11045172 0.27796015 -0.016077101
-0.15593798 -0.13497281 -0.15185161 -0.18306029 -0.21896078 -0.0046974877 -0.102877945 -0.16454366
-0.3166183 -0.44949454 -0.24085914 -0.0154949995 0.03898335 -0.11308942 -0.19077455 -0.0945428
0.016047323 0.0011010896 -0.10417799 -0.064196885 -0.17831765 -0.2052677 -0.16952299 0.023556873
-0.026702406 0.265056 0.16071843 -0.038430303 -0.14993966 -0.0696963 0.012505905 -0.27624345
-0.23290421 -0.111616276 -0.18682939 -0.23527369 -0.38095942 -0.26149526 -0.074707225 -0.10657856
-0.025717622 -0.03571736 -0.11634774 -0.054659568 -0.02826313 -0.24454479 -0.0827922 -0.09370493
-0.1833343 -0.14504232 -0.18133956 -0.030018754 -0.007471027 0.20525569 0.32158822 0.13539962
0.12921274 0.13847688 0.02340568 -0.15842569 -0.14634444 -0.2191251 -0.07959732 -0.123531274
-0.18244158 -0.16971245 -0.06614215 -0.13358822 -0.05377668 -0.1871086 -0.20937984 -0.2106136
-0.029719321 -0.1078531 -0.06442714 -0.158699 -0.107847646 -0.027007239 -0.020808566 -0.08012137
0.072295286 0.19703679 0.43222272 0.3789224 0.092816316 -0.0019281053 -0.13778791 -0.046761155
-0.18759215 -0.11625979 -0.084418245 -0.115639515 -0.12418961 -0.14908482 -0.13232544 -0.039992366
0.023049684 -0.13883138 -0.17710163 -0.038875155 0.027960936 -0.09631183 -0.023049898 -0.13679126
-0.1641196 -0.058615185 0.018683258 0.13050844 0.053921163 0.027078794 0.27039278 0.37370256
-0.15037097 -0.18986891 -0.32217428 -0.06912432 -0.10276899 -0.037908603 -0.07602664 -0.0396132
-0.087721094 -0.12895994 -0.13226977 -0.13097315 -0.031609792 -0.13223177 -0.14112282 -0.085980706
-0.05039 -0.14135768 -0.076117866 -0.04752762 -0.18811843 -0.08691072 -0.14468214 0.10736651
-0.027617086 -0.053821586 0.21058185 0.24644119 0.09322331 -0.26364988 -0.3341868 -0.06990634
-0.056326214 -0.07878706 -0.09929871 -0.049628492 -0.11312256 -0.06754188 0.0022651844 -0.038890358
-0.073228754 -0.18402295 -0.26176342 -0.22022368 -0.12145572 -0.034171224 0.045831148 0.031789504
-0.10740502 -0.23208351 -0.09296453 0.11124514 0.15039936 0.11365876 0.061106887 0.3656566
0.25939882 -0.24846633 -0.17002836 -0.013575917 -0.0685397 -0.05092344 -0.07178861 -0.066821225
-0.047584426 -0.066791154 -0.036899406 0.024709774 0.005092339 -0.17600395 -0.22250256 -0.20945518
-0.075699165 -0.03399708 -0.044117652 -0.047674973 -0.22652723 -0.2513216 -0.17162591 0.06353523
0.1786653 0.081728846 0.006504492 0.41702026 0.35061055 -0.17190729 -0.057029665 0.06708045

fc.1.block.linear.bias f4 [256]
00000000: d1c4 6bbe 6550 ef3e 1f20 ba3e 231b 4e3e
00000010: 1e74 88bc 9e28 81bd 58f7 5b3c 3fb6 f83b
00000020: 4073 393f 97cd 923a 89e6 09be 8d15 4abc
00000030: 92b5 8fbd 83bb b43e 2d6e 48bd 5f68 133f
00000040: 6f11 20bd 02fb 98bd cd7f 843e 19ee a63e
00000050: 2338 18bd fdd3 d2bd 3a53 69bd 5106 a0bd
00000060: 50d2 98bd c570 6d3e 8f34 d63b b6b3 cabc
00000070: eda3 0dbe 091f 593e c5e4 68bc 8c51 57bd
00000080: f8ee 08bd 43b6 b8bd d847 f9bb f9f6 97be
00000090: 4352 f4bc 1eb8 7a3e d896 64bb 34e1 52be
000000a0: c515 7cbe 3e11 15bd e4d0 aa3c bc9c a9be
000000b0: 2bc3 1cbd 175e 81bd 5a66 c2bc 30c1 373f
000000c0: f3e0 bdbe fe73 5bbd 778f 26bf 693b 1abb
000000d0: 360b 74be 4b51 50be dcc9 943d 4893 8bbe
000000e0: 6157 54be 2461 933d 35b5 8ebe 2d98 b93e
000000f0: edb6 f03e 3c95 643c 0045 c9bd 6ba4 533e
00000100: 8319 19bd 00fa 8d3e 9f95 753e d654 3dbd
00000110: 6e46 0dbe 96f9 d03e dcf2 4d3d eb83 0f3f
00000120: edf8 803d 92f3 f2bd 360c 0e3e 186b 733e
00000130: ad89 12bd ae20 5bbe 9bb0 3fbf 9d80 84bc
00000140: d664 473b 1d55 a03e 3f4d 113f bda8 a4be
00000150: 78fc 0bbf fc07 febc 0e0e c93e d1cb c73e
00000160: 9e1e 8ebd 21b0 5fbe 245a 0bbd c9df 083c
00000170: 2765 a1be bb6e d73d cf44 40bd 1dcc c0bc
00000180: 264b 51bd 5427 293c e1ab a9bc 9fba 893e
00000190: 6e45 963e b76d cbbc 45d9 623e 3271 45be
000001a0: a39e 1a3c 5944 99bb ef37 893b 0704 623d
000001b0: c8e7 cf3e 9174 9a3d 1294 063c 5491 18be
000001c0: f1e7 853e 1da7 57bd 17e1 003f f383 ac3e
000001d0: dd23 063f becf d43e 80fb 98bd 8475 f13e
000001e0: d772 f03e 53b5 6f3a 4f91 c73d b9de 98be
000001f0: 592f 0f3e deab 9b3e 203d a0ba bfe9 dbbd
00000200: 8837 063f ca84 bc3e f220 b7bd 16e5 d83e
00000210: a658 ddbd 1068 b6bd b009 35bd 9940 05bd
00000220: 44e3 603d 91d5 003e e256 473e fc72 66bd
00000230: 1499 0a3f c2e0 913d 8008 bb3e 842a fa3e
00000240: c2d0 bfbd 2586 30bc 321f 393c b0c3 423e
00000250: 0936 0d3d cf45 da3e 29a6 16be 0fee f03d
00000260: 74b8 f7be 723b 9dbe 5663 933e 4e07 d3be
00000270: f464 4bbd 96d4 283d d439 353e f9e9 81bd
00000280: f121 bb3e 0bf9 723d a2a6 753e 17f1 4bbd
00000290: 3971 93be 36c6 e93e 498a 80bb 7d2e 53bc
000002a0: cbaf fdbd a339 ed3e 6890 17be c509 de3e
000002b0: 0506 2ebe 4b2f e7bc 383e 94bc f5a3 13bd
000002c0: 1ef0 51bc 9484 04be 52e8 c6be a89f 103f
000002d0: c903 c73e 5226 2abf 2e0d 453d 39a1 73bd
000002e0: b108 293e 9832 e0bd e257 b5bc 43e8 fd3e
000002f0: 6952 01be fd42 4a3e 8ba6 403d 5da8 a1be
00000300: cf51 2b3f a8d0 bfbd c5ae a3bd 86e4 c2be
00000310: 55a6 dfbe 900d 023e 2a6d 473c 0946 ba3e
00000320: 2843 a4bd ba7d da3e ffbd a63d 18e8 8c3c
00000330: 96c8 8f3b 3690 e03e fda4 78be 522f df3e
00000340: 3528 51be a1e6 343f a142 95be 6790 91bd
00000350: 75bc 833e 30bc 8f3b c065 5dbc 2e06 0bbc
00000360: 4c0c 28bd a877 f83d 7cac 15be 69ac f0be
00000370: 2255 0b3e 8c68 b33d 7e3d 97bc 0c4e 2bbd
00000380: 7aca 0c3f 5484 3bbd 7023 c5bc 2f93 ee3e
00000390: ccef 263f d90e 153e 5c0d 04bf d577 3a3d
000003a0: 9a08 be3c 621c 2a3e 6950 053c cb1c 3dbd
000003b0: 2911 813e 2394 153f c84b 61bd 5602 2a3e
000003c0: 6771 2e3f 9b97 193e 670d e53e ff39 c6bd
000003d0: a3bb c6bc a54b 3d3c 866e 563e c917 38be
000003e0: 4841 dc3e e543 ed3e 47e5 903e 9005 463d
000003f0: 3d66 a73b fe8b 913e bf76 60be 1657 98bd
-0.23024298 0.46741024 0.3635263 0.2012754 -0.016656931 -0.06306575 0.013425671 0.007590085
0.7244148 0.0011200187 -0.13466848 -0.01233424 -0.07017054 0.3529931 -0.048933197 0.5758113
-0.039079126 -0.07469751 0.25878754 0.3260353 -0.03716291 -0.1029434 -0.056964137 -0.07813705
-0.07461989 0.2318755 0.006537027 -0.024743896 -0.13832064 0.21203245 -0.014214699 -0.052568004
-0.033431023 -0.09019139 -0.0076074414 -0.29680613 -0.029824382 0.24484298 -0.003487995 -0.2059372
-0.2461768 -0.036393397 0.02085156 -0.3312739 -0.038272064 -0.06316774 -0.023730446 0.71779156
-0.37085685 -0.053577416 -0.6506266 -0.0023533946 -0.23832402 -0.20343511 0.07265064 -0.27260804
-0.20736457 0.071962625 -0.27872625 0.36248913 0.4701456 0.013951596 -0.09827614 0.20668189
-0.037377845 0.27729797 0.23982857 -0.046223484 -0.13796398 0.4081542 0.050280437 0.56060666
0.06297479 -0.118628636 0.13871846 0.23771322 -0.03577583 -0.21399185 -0.74878854 -0.016174609
0.0030425093 0.31314936 0.56758493 -0.32159987 -0.5468211 -0.031009667 0.39268535 0.39022687
-0.069394335 -0.21844532 -0.03402151 0.008354136 -0.31522486 0.10519167 -0.04694062 -0.023534829
-0.051097058 0.010324318 -0.020711841 0.26900193 0.29349846 -0.02483259 0.22153194 -0.19281462
0.009437236 -0.004677337 0.004187576 0.055179622 0.40606523 0.075417645 0.008214014 -0.14899188
0.2615352 -0.052649606 0.5034346 0.3369442 0.52398473 0.41564745 -0.07469845 0.4715997
0.46962616 0.0009144146 0.09744512 -0.29857424 0.13982905 0.30404562 -0.0012225248 -0.10737943
0.52428484 0.3682006 -0.08941831 0.4236228 -0.10807924 -0.08906567 -0.04419869 -0.03253231
0.054904237 0.12581469 0.19466737 -0.056262 0.5413983 0.07122947 0.36529922 0.48860562
-0.09365989 -0.01077417 0.011298941 0.19019961 0.03447536 0.42631385 -0.14711823 0.11764156
-0.48382914 -0.30709416 0.28786725 -0.4121651 -0.049656823 0.041218363 0.17697841 -0.06343455
0.36549333 0.059319537 0.23989347 -0.049790468 -0.2879732 0.45659035 -0.003922735 -0.012889502
-0.123870455 0.46333036 -0.1480118 0.4336683 -0.16994484 -0.028220793 -0.018096074 -0.036045033
-0.012813596 -0.129412 -0.3884912 0.56493616 0.38870075 -0.6646472 0.048108272 -0.059479926
0.16507222 -0.1094715 -0.022136632 0.49591264 -0.12629093 0.19752117 0.047033828 -0.31573763
0.66921705 -0.0936597 -0.07992319 -0.38064975 -0.4368159 0.12700486 0.012172023 0.36381558
-0.080206215 0.42674047 0.08141708 0.017200515 0.0043879254 0.43860024 -0.24281688 0.4359079
-0.20425494 0.7066441 -0.29152396 -0.07107621 0.2572972 0.0043864474 -0.013513029 -0.00848536
-0.041027352 0.121321976 -0.14616579 -0.4700654 0.13606694 0.08760175 -0.018461939 -0.04182248
0.54996455 -0.045780495 -0.02406475 0.46596667 0.6520965 0.14556445 -0.51582885 0.045524437
0.02319746 0.1661239 0.008136847 -0.046170037 0.25208405 0.58429164 -0.05500391 0.16602454
0.6814179 0.14999239 0.44736788 -0.096790306 -0.024259394 0.01155368 0.20940599 -0.17977823
0.43018556 0.46340862 0.28299925 0.04834515 0.0051086233 0.28427118 -0.21920298 -0.07438485

fc.2.block.linear.weight f4 [64, 256]
00000000: d2f5 063d 1279 56be 0ac7 02be 008a 95bd
00000010: bb79 b33a 1bb1 703d 19ef 613c d4b6 61bd
00000020: 6fcd d1bd 1774 803d 60e8 013c c7ec 083d
00000030: 05cc 16be 5b3d 243d d817 983d 1388 99bd
00000040: 4581 3ebc 629b ae3d 0e49 0abe 9fa3 e0bc
00000050: 40d1 a93b c705 c0bc a7f4 c93c 12e8 4a3d
00000060: 13f1 78be 8378 683e b82a 8a3a fa1b cdbc
00000070: b931 493e a7ed 883d 7dfa 0e3d c7e5 38bc
00000080: 7954 e13b 6acd 21be 9de6 853d b99d 813d
00000090: c839 3a3d c405 09be 4501 8abc bafe de3c
000000a0: 3910 703d 5c9c 30bc 53e4 04bd e100 3f3e
000000b0: 1967 963c d68f 9a3d bf68 e63c 39fa 5a3d
000000c0: c720 46bd 3ecb 993b c280 013e c828 adbc
000000d0: 97e3 1bbb c207 373e 255c 31bd 3e55 943d
000000e0: 0886 0cbe fdea c3bd 37e6 2b3e 58b7 fabc
000000f0: ee60 da3c c039 4ebc f25f 093e ab66 bcbd
00000100: bb5e 59bd fa29 70bd 68e8 91bb b7a5 2a3b
00000110: 10fe d93c 6f9c a93d 2883 9a3b 5d50 4fbd
00000120: 44e3 4cbd 50c3 873d eca5 ae3e 8287 bfbd
00000130: 5178 7d3c 99cc 12be 9db2 c53d 11fa 6d3c
00000140: 2802 dd3c ac52 8cbe 20db 28bd 7fdd 0d3d
00000150: 477d 703d 1528 f0bc 6fd8 90bd 82b6 69bd
00000160: 0f38 9b3c 6d0b ad3d ecfe 94bd dfed e13a
00000170: a0b0 823d a033 45be 8cd4 e53c ceb5 51bc
00000180: d985 983c e503 5a3d 484d 5dbd c95a 21bc
00000190: 0380 80bd 2a46 563d 3254 c13d 6901 af3d
000001a0: 122d 633d a467 883d 0cf9 493d f969 213c
000001b0: 120b d73c 9531 5dbd 9308 1d3c 6d6d 14bd
000001c0: 29fe 3cbb 2245 c4bd 454a b33d 6fbb 963c
000001d0: a39c 9abe d3a9 4dbe 1250 42bc f21c 59be
000001e0: 1e3a b8bd f66b f13b 2c0e cb3d 4571 90bc
000001f0: aad2 803d 3c5b ac3d 5f55 903a 5b51 4b3d
00000200: 37d2 71bd 667e 54bb 4a44 0a3d e18f ffbc
00000210: 9805 973d cbf8 e13c 7a1d 92bd f17a a03c
00000220: 8828 873c 219c c2bb 2238 9bbb c989 4d3d
00000230: 9313 19be 8319 d6bd e192 63bd 1b41 abbd
00000240: e847 e03c f042 9c3c fa55 c0bc 224e 37be
00000250: 2a47 643e 3105 763c ad96 833d 4f83 dfbd
00000260: 9d36 793d 0add 20be 7f43 d93c b21e 09be
00000270: 29ca 96bd 7939 8e3e b15f 3f3c 5e3c 543d
00000280: 7364 44bd c71c 65bd 83c7 9d3d fcb4 0a3d
00000290: 3f35 bc3d 574e 07be eadc 663e 9e30 363e
000002a0: 43de 48bb ead5 6d3d bd65 46be 1285 82be
000002b0: 50cc 533d 8306 10bd 8644 dd3c a0ef d73a
000002c0: 8370 68ba 3250 ca3d 9e81 cfbd 00cf aabd
000002d0: 01b1 803d 8830 193e 9be1 ab3d 97c8 7dbc
000002e0: 2f25 7dbe 5aa9 e9bd 70bf ccbc c009 8fbd
000002f0: 3c78 37be 284e 7dbe 7759 b8bd 9db7 1ebd
00000300: 61ce d1bd ef53 283d 0f25 82bd a1ab d1bd
00000310: 07b6 ab3c bdbe 98bd d6e2 c5bc 2ad4 61be
00000320: 49d8 0f3e 69a8 b8bd 4e30 8dbd 148d 88bc
00000330: ffa3 98bc a434 e3bd 687a de3d 45b2 b1bc
00000340: 7466 ac3d c946 f1bd 6380 463d c3e7 0ebd
00000350: c975 95bd eee7 823d 578d e9bc 9d67 18bb
00000360: 8546 06bd eaad ea3d b1e8 143e 48ac 8ebd
00000370: 6af4 b53c 5962 f33c 106b 94bd 9fbd 94bc
00000380: 4cde 1a3d 467c c73c 026b 00bd 6e16 adbd
00000390: 1ab2 b63d 256d d43b 9b4c 173e db18 afbd
000003a0: eff0 893d 7fa6 40bd 69bc fabc 47be e7bc
000003b0: 109f 2b3d bf95 7cbe 778b 55bd cd72 aebc
000003c0: c800 74bd 876f 08be a549 e4bd da60 d4bd
000003d0: d159 c6bd fcd6 1dbc 49b7 e43d f026 0a3e
000003e0: 7458 d63c 6538 393e cbd6 4f3e fba6 14be
000003f0: 2477 0c3b cca2 11be 2011 89be 40d9 bdbd
0.032949276 -0.20944622 -0.1277124 -0.07301712 0.0013692895 0.05876265 0.0137899155 -0.055106
-0.102442615 0.062721424 0.007928938 0.033428933 -0.14726265 0.040097576 0.07426423 -0.07496657
-0.0116275 0.08525731 -0.1350443 -0.02742177 0.0051824152 -0.023440255 0.024652792 0.049537726
-0.24310713 0.22702222 0.0010541296 -0.025037754 0.19647874 0.066859536 0.034906853 -0.011285252
0.006876525 -0.15801015 0.065381266 0.06328911 0.04546526 -0.13381106 -0.016846308 0.027221072
0.05860922 -0.0107794665 -0.03244431 0.18652679 0.018359708 0.07546966 0.028126119 0.053461287
-0.048371103 0.004693418 0.12646773 -0.02113761 -0.0023786777 0.17874053 -0.043300766 0.07242821
-0.13723004 -0.09566305 0.16787039 -0.030605003 0.026657548 -0.012587011 0.13415506 -0.0919927
-0.053068858 -0.058633782 -0.004452754 0.0026038715 0.026610404 0.082817905 0.004715342 -0.05061375
-0.050021425 0.0662905 0.34110963 -0.09352018 0.01547058 -0.1433586 0.096532084 0.0145249525
0.026978567 -0.27406824 -0.0412246 0.034635063 0.058713224 -0.029315988 -0.070725314 -0.05705882
0.01894763 0.08449445 -0.07275185 0.0017237029 0.06381345 -0.19257975 0.028055452 -0.012799693
0.018618511 0.05322637 -0.05402878 -0.009848305 -0.06274416 0.052313007 0.09439887 0.08545191
0.055462904 0.06660393 0.049309775 0.009851926 0.026250396 -0.054002363 0.009584564 -0.03623717
-0.0028838015 -0.095834985 0.087544 0.018399922 -0.3019763 -0.20084314 -0.011859911 -0.21202448
-0.0899546 0.0073676063 0.099148124 -0.017632136 0.06290181 0.08415839 0.0011011771 0.049638133
-0.059038367 -0.0032423972 0.03375653 -0.031196536 0.07374114 0.027584454 -0.071345285 0.019589873
0.016498819 -0.005939022 -0.004736916 0.05018023 -0.14948873 -0.10454085 -0.055559997 -0.08362027
0.027378038 0.019074887 -0.023478497 -0.17900899 0.22292772 0.015015886 0.064252235 -0.10913717
0.0608431 -0.1570932 0.026521442 -0.13390616 -0.07362778 0.27778223 0.011680529 0.051815383
-0.04794736 -0.055935647 0.077040695 0.033864006 0.091898434 -0.13213478 0.2254521 0.17791983
-0.0030650056 0.058065332 -0.19374748 -0.2549215 0.05170852 -0.03516246 0.027010214 0.0016474612
-0.0008866863 0.09878577 -0.101321444 -0.08340263 0.06283761 0.1495992 0.0839264 -0.015489719
-0.24721216 -0.11409254 -0.024993628 -0.069842815 -0.1791696 -0.24736845 -0.09001439 -0.038749326
-0.10244442 0.04109567 -0.063547246 -0.10237814 0.02096082 -0.074582554 -0.024156015 -0.2205359
0.1404735 -0.09016497 -0.06893979 -0.016668834 -0.018632887 -0.11094025 0.10863191 -0.02169145
0.08417979 -0.11781079 0.048462283 -0.034888994 -0.07297856 0.06391893 -0.028509779 -0.0023255118
-0.032782096 0.11458953 0.1454189 -0.06966454 0.022211272 0.029709982 -0.07246983 -0.018156825
0.037809655 0.02435125 -0.03135205 -0.08451544 0.08920689 0.0064827376 0.14775316 -0.08549663
0.067354076 -0.047033783 -0.03060742 -0.028288973 0.04189974 -0.24666499 -0.052134957 -0.021294976
-0.059571058 -0.13323794 -0.11146859 -0.103700355 -0.096851 -0.009633776 0.11167771 0.13491416
0.026165225 0.18087919 0.20296781 -0.14516823 0.0021433318 -0.14222258 -0.26770878 -0.09269953

fc.2.block.linear.bias f4 [64]
00000000: 5836 123e 5887 edbd 0280 1e3c 17ae f43c
00000010: b16e fa3e f65d be3e 6828 19be ed8c d83e
00000020: 0568 d83e ea31 a43e 1528 3cbd 42eb 1e3e
00000030: ea01 643e 9200 25be 5f76 b63c aa61 b03e
00000040: e4a2 b93e bd23 9e3e ba65 b2bd 5eba be3e
00000050: a54e 0e3f 98e6 bc3e 9b57 253e e30d a53e
00000060: 7b3f d93d abaf 68be e4b4 7f3e a7a7 49bd
00000070: bfe6 47bc b088 7abd f768 f33c 8632 433d
00000080: 91ad 27be 4843 293e 27ea 8c3d e3da 1f3f
00000090: d4da 993d fef1 25be 0020 673e 80b9 0a3f
000000a0: ca14 9b3d d5c6 083f 8540 eb3d 7965 913e
000000b0: 63b2 913e eb1a c33e a920 593e 9fd5 c13e
000000c0: a5a8 d43e 77af 963e 2521 d93d c996 623e
000000d0: 0fe9 873e f7cc 0d3f 3def af3e 07da ba3e
000000e0: b17e 083f d01f 8a3e 6307 31be 10d3 cc3e
000000f0: e648 153f 5967 82bc ae10 a13e 8ea9 a73e
0.14278543 -0.115980804 0.009674074 0.029868169 0.48912576 0.37181062 -0.1495682 0.42295018
0.4226686 0.3206933 -0.045936663 0.15519431 0.22266355 -0.16113499 0.02227324 0.34449512
0.36257088 0.3088664 -0.08710809 0.37251562 0.5558875 0.3689468 0.161467 0.32237157
0.10607811 -0.22723262 0.24971348 -0.04923215 -0.01220101 -0.06116551 0.029713137 0.047655605
-0.16374804 0.16529572 0.068805985 0.6244337 0.07512441 -0.16205594 0.22570801 0.541893
0.075723246 0.53428394 0.114869155 0.2839773 0.2845641 0.38106474 0.21203865 0.37858292
0.41534916 0.29430744 0.10602025 0.22127832 0.26544997 0.55390877 0.34362212 0.36494467
0.53318316 0.26977396 -0.17287974 0.40004778 0.5831436 -0.01591842 0.31458038 0.32746547

fc.3.block.linear.weight f4 [10, 64]
00000000: d1f4 b9be 29ae 103e e92a adbd 2245 ce3d
00000010: 640d 4bbe 1c87 0abe 7a1c 5b3d 7818 d1be
00000020: 197a 8cbe 860e a8be 0c8a 193e 0d58 87be
00000030: f4aa b43d 08e1 0a3e e5fc e93d bfbf a8be
00000040: 411f 63be f9e2 8abe c381 373e 0148 123e
00000050: ee10 45bf 4425 b7be 51e9 a73c f2f7 c6be
00000060: 1883 b3bd 40ff 163d a65f c4bd 4f12 15be
00000070: ba5f bc3d b5ff 6b3d ba6f afbe a244 063e
00000080: bf04 39be ed13 b3be 56a1 19be 8e35 1a3d
00000090: b76a c7be f5f1 4cbd 8167 17bf 14e5 e4bd
000000a0: 45fa 123e b0c8 b1be 78a7 06bf ca3c fe38
000000b0: 15b3 cfbd f746 eabe d049 b33d 6f26 6ebe
000000c0: fff2 933b 9e95 9abd 9123 dfbc c097 3a3d
000000d0: 0eeb c9bd 93c9 9cbe 9c94 bd3d 6027 a2be
000000e0: 1e15 97bd 2279 223e a5c9 06be 999b f4bd
000000f0: 2a7f 15bf a218 08be 9ccc a7be 3a86 113e
00000100: 185d 473d 49fd 393e bb0d afbd 32bd 95be
00000110: 2d32 d4bd 73fe 40be 1837 07be fdff a63c
00000120: 5835 58bd dd75 393d dc3f 5cbd 94d8 8abe
00000130: 141f 023e b2d1 d2bd 19cb 3ebe 21fe 82be
00000140: a16e cf3c fe3a 82be df7b 5bbd c85d bf3d
00000150: 302b 8abe 0ea8 843d 7b25 fdbd edbb 5a3d
00000160: 4724 313e d701 0dbf f62e f9bd 3687 303e
00000170: e761 3ebe 5123 f43d 7c79 253d f524 093e
00000180: a1c5 cabe 746a c93d 6d26 463e c806 4fbe
00000190: 3b9c 78be cc19 2ebc 7f1f c83d 501c b2be
000001a0: 07c1 a1be 1651 e33c be1c 83be 1ac7 42bd
000001b0: 97a6 dfbd f9fc 1fbd 3c1d b4be 0c30 03bd
000001c0: e2cd 91be cdec ef3d 54e9 b33d eb7b 67be
000001d0: a0ac cdbd 4702 0d3e 4fa2 de3c 4816 ee3c
000001e0: 45a3 f13d 2c6a 84ba 4d65 663c a666 80be
000001f0: 7614 a3be 9548 f23d 6b30 e7be 2058 6abe
00000200: b24f 253e e547 19be b53a 9bbd 7179 a2be
00000210: 1b15 cbbd 3d29 2fbe 9d4b 9dbd f6e2 b43d
00000220: 5886 093e fd54 c93d 52be bdbd e803 e13d
00000230: 205f a7be 029a 813d ac63 be3d cbec ba3c
00000240: f2ed ffbd b73f 49bd 78b2 9fbe f9f0 09be
00000250: 4f9c 63be 79d3 1a3d 98d7 e43c 4185 33be
00000260: 7d11 e93c a0a1 ce3b 7bf0 9cbd 9dc4 07be
00000270: ad39 1b3e 9702 77be 5eb7 d23c ad83 8cbe
00000280: 64f1 15bf 20fd d03d 0c43 ad3d aa01 cbbd
00000290: 0760 4fbe 1a50 4dbd 196c a73d 4fa6 2abe
000002a0: d698 9bbe 86f5 27bd b5b3 d83d e3cb fdbc
000002b0: 87e5 98be 4b42 5fbe a4dd 8c3d b55f 3d3d
000002c0: 7397 26be 22ce 76be 097a 053d 8430 fabb
000002d0: 03b3 c2bc 952b c9bd f427 d6be ebaf 1a3e
000002e0: 1d65 79be 0e4d 5ebe b696 e53d 519f 093e
000002f0: 0f5d 3a3d 4361 b93d 8dd4 3ebe 99be 91be
00000300: 9ada 083e ea88 81be dc29 483d 3333 1cbe
00000310: b2ef 52be 20db d43d cd63 04bc ff71 583d
00000320: 105e 0f3e 4088 cebe a90a fc3d ec93 903d
00000330: 400d b4be b429 8fbc f825 95be 1f04 a43d
00000340: d868 093e c642 29be a5eb 0dbe 4053 07bd
00000350: 6d13 a13d a387 e6bd 5a0c d3bd 1bdf 153e
00000360: 6685 a3bd 6361 27bb a44c 6ebe a6de 25be
00000370: e5d5 a8be f1ab 05be 7713 02be 8c80 8fbe
00000380: 6bef 57bd b9c9 f83c 96df ec3c 0f26 30bf
00000390: b32a b73d c3da 60ba 5d32 9b3d d019 9dbe
000003a0: 8157 9dbe 59b6 c4bd 9145 d4bd 153f a7bd
000003b0: 8cc2 b1bd fa56 f13d 4fec e73d 6864 b93b
000003c0: 4328 1fbe 19fe 1ebe ba3e 69be 64b6 97bb
000003d0: 306b 0b3e 6d0c c1bd 1264 5dbb 5fd5 073c
000003e0: c616 79bd 8d4e a4be 0165 d4bd 61eb 023e
000003f0: 5647 c03d d1b9 bdbd e36f 813d 13ca 76be
-0.36319593 0.14128937 -0.0845545 0.1007178 -0.19829327 -0.13528103 0.053493954 -0.4083898
-0.27436903 -0.3282358 0.14994067 -0.26434365 0.08821669 0.13562405 0.11425189 -0.3295879
-0.22179891 -0.2712629 0.17920594 0.1428528 -0.7697896 -0.3577062 0.020496996 -0.38861042
-0.087652385 0.03686452 -0.09588556 -0.14557765 0.09197946 0.057616908 -0.34264928 0.13112119
-0.18068217 -0.3497614 -0.15002951 0.03764873 -0.38948604 -0.050035436 -0.5914231 -0.11176506
0.14353283 -0.34723425 -0.5259929 0.00012122987 -0.10141579 -0.45757267 0.08754313 -0.23256849
0.0045150514 -0.075480685 -0.02723864 0.045554876 -0.09859286 -0.3062254 0.092568606 -0.31670666
-0.07377075 0.15866521 -0.13162859 -0.119437404 -0.5839716 -0.13290647 -0.32773292 0.1421136
0.048672765 0.18163027 -0.08547541 -0.29245907 -0.10361133 -0.18847065 -0.1320461 0.020385737
-0.052785248 0.04527842 -0.05377184 -0.2711836 0.12707168 -0.102939025 -0.18632163 -0.2558451
0.025321307 -0.25435632 -0.05358493 0.09344059 -0.26986074 0.064773664 -0.123606645 0.053401876
0.17298995 -0.5508093 -0.1216716 0.17239079 -0.18592034 0.119207986 0.04039906 0.13393004
-0.39603904 0.098347574 0.19350596 -0.2021743 -0.24278347 -0.010626268 0.097716324 -0.34787226
-0.3159258 0.027748626 -0.25607866 -0.04755316 -0.10920446 -0.039059613 -0.35178554 -0.032028243
-0.2847739 0.11715088 0.08784738 -0.22605865 -0.10042691 0.137704 0.027177004 0.029063359
0.11798719 -0.0010102442 0.014062238 -0.25078315 -0.31851548 0.1183025 -0.45154127 -0.2288518
0.16143683 -0.14968832 -0.07579557 -0.31733277 -0.09916135 -0.17105575 -0.07680438 0.08832352
0.13430154 0.09830663 -0.09264816 0.10987073 -0.32689762 0.06328203 0.09296355 0.02281799
-0.12496556 -0.04913303 -0.31190848 -0.1347083 -0.22227596 0.037799332 0.027934834 -0.17531301
0.028450722 0.0063058883 -0.076630555 -0.13258596 0.1515872 -0.24122082 0.025722202 -0.2744421
-0.5857146 0.1020453 0.08460054 -0.09912427 -0.20251475 -0.05012522 0.08174915 -0.16665004
-0.30390042 -0.041005634 0.105811514 -0.03098101 -0.29862615 -0.21802633 0.06878212 0.04623385
-0.16268711 -0.24102071 0.032587085 -0.007635178 -0.023767 -0.09822766 -0.41827357 0.1510617
-0.24354978 -0.21709082 0.112103865 0.1343968 0.045498904 0.09051754 -0.18635769 -0.28465727
0.1336464 -0.2529977 0.048868045 -0.15253906 -0.20599249 0.10393357 -0.008080435 0.05284309
0.14000726 -0.40338326 0.12306721 0.07059464 -0.3516636 -0.01747594 -0.2913053 0.080085985
0.13418901 -0.16529378 -0.13859423 -0.033038378 0.07865033 -0.112563394 -0.1030509 0.14635889
-0.07984428 -0.0025540225 -0.23271424 -0.16198215 -0.3297569 -0.13053872 -0.12702738 -0.2802776
-0.05271856 0.030369626 0.028915208 -0.6880807 0.08943691 -0.000857752 0.075779654 -0.30683756
-0.30730823 -0.096050926 -0.10364831 -0.08166329 -0.08679685 0.117841676 0.11324369 0.0056577213
-0.15542702 -0.15526618 -0.22777835 -0.004629897 0.13615108 -0.09426198 -0.003378157 0.008290618
-0.060812734 -0.3209118 -0.103708275 0.12785102 0.09388606 -0.09263957 0.06320169 -0.24100523

fc.3.block.linear.bias f4 [10]
00000000: 861a b1be fed1 61be 49fd 91be 52f6 633e
00000010: 68e3 353e 507c bd3d 61d2 bf3d 98fb 503e
00000020: 4ae4 8fbc 91e1 03bf
-0.34590548 -0.22052762 -0.28513554 0.22261932 0.1776253 0.09252226 0.093662985 0.20408475
-0.017564911 -0.5151606
