workshop/model/weights.pth (torch, 6095 bytes, 8 tensors)

0.weight f4 [32, 7]
0.24989328 -0.22214274 -0.113794245 0.20791487 0.038534693 -0.019701958 -0.010981702 0.09153868
0.15468232 0.08098648 -0.16174646 -0.3387137 0.20012143 -0.16613968 0.21567123 -0.19621986
0.005880112 -0.13751468 0.10678957 -0.1316673 -0.31339997 0.17943335 0.028875533 -0.04797785
-0.025937308 0.10296921 0.62910986 -0.0047436967 0.8428609 0.24628016 -0.40503317 -0.21148968
-0.45079735 -0.09243134 -0.03993534 -0.5182971 -0.12176072 0.30263004 -0.16963995 0.09057601
-0.74615526 -0.19099995 0.26996294 -0.20387056 -0.16699684 0.23993355 -0.27467257 -0.33217487
0.169912 -0.44324538 -0.06029195 0.3636214 -0.13792437 -0.3413534 -0.13454215 -0.22992952
0.41255763 0.053726096 -0.08567203 0.03435187 0.023149248 0.57179534 -0.056156605 -0.21606821
-0.2446767 -0.25921553 -0.22801612 0.26154265 -0.30664384 -0.09140269 -0.61771595 -0.12482292
0.36673942 0.007830587 -0.14040332 -0.8321158 -0.259615 -0.3050722 -0.046871223 -0.16658019
-0.04938402 -0.12609853 -0.06833329 0.30757427 -0.45197257 -0.010171894 0.23586145 -0.029253995
-0.40179145 -0.14960882 -0.23182169 -0.09137155 -0.30031556 0.14614418 0.062312484 -0.23969024
0.074527144 -0.16042058 -0.043652464 0.1923609 -0.3906264 -0.08626609 0.11836936 -0.26462013
0.10481989 -0.11237522 0.01854585 0.06118715 -0.20508727 -0.13132146 0.15650594 -0.07202357
-1.1381353 0.101622425 -0.11727107 0.052440275 0.231567 0.06705862 -0.6383548 -0.19062766
-0.35210925 0.25684035 0.41273606 -0.12399457 -1.5430608 0.045196645 -0.32570198 -0.3230594
0.13688672 0.10341168 -0.21348043 0.03774349 -0.13930379 0.41880584 0.033173896 0.034447994
-0.1809405 0.055859838 0.43504068 -0.05321705 0.092399195 0.023743344 0.0057914476 -0.034370102
0.09920069 0.5585145 0.00953531 0.526502 0.13765189 -0.23260528 0.07998409 -0.12734742
-0.21647361 -0.123862 0.12416027 -0.06868137 -0.029305136 -0.19333139 0.21880803 -0.060659662
0.037120212 0.005109774 -0.039053496 0.33019832 -0.4225917 -0.40604144 0.085899465 -0.084138304
-0.5962001 -0.20230107 0.39827713 0.08234978 0.12359644 -0.75808644 -0.32647833 0.81648374
0.15093002 -0.08347384 -0.20286347 0.06792293 0.27141213 -0.124153346 0.50839335 0.045141477
-0.06365896 -0.030341007 0.091229945 1.0494956 -0.08016401 0.001369241 0.07107135 -0.29697335
-0.3385648 -0.33518642 0.16546659 0.042318683 -0.3020876 -0.30227497 -0.10603109 -0.14416537
0.11547568 0.16329108 0.08869544 0.32076603 -0.25258163 -0.27641925 -0.28993198 0.009304384
-0.031444214 0.31187215 -0.11580122 -0.246393 -0.3252586 0.15734552 0.3418338 -0.13666116
0.059136145 0.13197334 -0.20644131 0.15560333 -0.14452215 -0.26094317 0.06269909 0.27532575
00000000: 06e4 7f3e 6379 63be f50c e9bd a3e7 543e
00000010: 8ed6 1d3d 0066 a1bc 99ec 33bc a278 bb3d
00000020: 0b65 1e3e 3ddc a53d dda0 25be e26b adbe
00000030: a2ec 4c3e 8520 2abe ebd8 5c3e dced 48be
00000040: f4ad c03b a6d0 0cbe 7db4 da3d cbd3 06be
00000050: f675 a0be 60bd 373e 628c ec3c 6c84 44bd
00000060: 7a7a d4bc 85e1 d23d 580d 213f 0371 9bbb
00000070: bbc5 573f de30 7c3e 8260 cfbe c090 58be
00000080: e9ce e6be a44c bdbd 3d93 23bd 1eaf 04bf
00000090: af5d f9bd 53f2 9a3e 18b6 2dbe ea7f b93d
000000a0: 0804 3fbf 7e95 43be 9538 8a3e 72c3 50be
000000b0: 3801 2bbe 24b1 753e e2a1 8cbe d312 aabe
000000c0: 69fd 2d3e 0ff1 e2be b1f4 76bd 962c ba3e
000000d0: 0c3c 0dbe dfc5 aebe 6bc5 09be a572 6bbe
000000e0: c13a d33e e50f 5c3d d174 afbd 8cb4 0c3d
000000f0: 7ea3 bd3c 2e61 123f 7804 66bd fc40 5dbe
00000100: 878c 7abe e6b7 84be 0f7d 69be ebe8 853e
00000110: 6c00 9dbe 5531 bbbd a222 1ebf 29a3 ffbd
00000120: 45c5 bb3e dd4b 003c e3c5 0fbe 8b05 55bf
00000130: 42ec 84be 6c32 9cbe 0afc 3fbd ff93 2abe
00000140: e646 4abd f91f 01be 53f2 8bbd 607a 9d3e
00000150: f368 e7be 04a8 26bc aa85 713e 13a6 efbc
00000160: 9cb7 cdbe 0e33 19be aa62 6dbe 0221 bbbd
00000170: f6c2 99be d2a6 153e 603b 7f3d 5c71 75be
00000180: b0a1 983d 4b45 24be edcc 32bd 41fa 443e
00000190: 2f00 c8be 47ac b0bd a36b f23d 4a7c 87be
000001a0: cfab d63d fb24 e6bd 77ed 973c 619f 7a3d
000001b0: 6602 52be 2279 06be 1843 203e 1881 93bd
000001c0: 6bae 91bf 6b1f d03d d12b f0bd 9dcb 563d
000001d0: e61f 6d3e 0856 893d 386b 23bf e633 43be
000001e0: aa47 b4be 9480 833e 2452 d33e ddf0 fdbd
000001f0: 0483 c5bf 1e20 393d 69c2 a6be 0b68 a5be
00000200: 082c 0c3e 81c9 d33d 9d9a 5abe eb98 1a3d
00000210: a7a5 0ebe b86d d63e 5ae1 073d 5719 0d3d
00000220: 7748 39be 49cd 643d a7bd de3e 1ffa 59bd
00000230: ca3b bd3d 6781 c23c 2fc6 bd3b aac7 0cbd
00000240: bb29 cb3d cefa 0e3f fd39 1c3c d6c8 063f
00000250: 9ef4 0c3e 1430 6ebe b3ce a33d 5d67 02be
00000260: 42ab 5dbe 5cab fdbd bd47 fe3d d1a8 8cbd
00000270: 5311 f0bc aaf8 45be 360f 603e 4476 78bd
00000280: 5d0b 183d e46f a73b 8ff6 1fbd c10f a93e
00000290: f05d d8be aae4 cfbe 0fec af3d b450 acbd
000002a0: 92a0 18bf 0328 4fbe fbea cb3e 00a7 a83d
000002b0: 2120 fd3d f411 42bf 2b28 a7be 1405 513f
000002c0: 668d 1a3e 55f4 aabd 71bb 4fbe 2d1b 8b3d
000002d0: 88f6 8a3e 1c44 febd 1126 023f 45e6 383d
000002e0: a15f 82bd b48d f8bc c4d6 ba3d df55 863f
000002f0: 072d a4bd 1b78 b33a db8d 913d e40c 98be
00000300: 5e58 adbe 8e9d abbe 1370 293e 5b56 2d3d
00000310: 3aab 9abe c9c3 9abe d426 d9bd 16a0 13be
00000320: 837e ec3d c735 273e f4a5 b53d 723b a43e
00000330: 6152 81be d386 8dbe f771 94be 6a71 183c
00000340: a6cb 00bd b5ad 9f3e 3129 edbd 724e 7cbe
00000350: 4c88 a6be 2f1f 213e d704 af3e e7f0 0bbe
00000360: be38 723d 0524 073e 5a65 53be 7b56 1f3e
00000370: 9dfd 13be 589a 85be 6168 803d 7ff7 8c3e

0.bias f4 [32]
0.15977119 -0.98120004 -0.097558744 -1.9933823 -1.0239376 1.0603456 0.18088047 0.7506267
-1.5035231 0.13496551 1.4033123 -0.22783732 0.8225542 0.085379265 -1.3693372 -0.40021273
-0.86606646 0.54584605 0.16850865 -1.8479759 -2.046297 -1.7898226 0.070343964 0.24191904
0.7586734 -1.690422 -1.8687109 -0.03349249 -0.0571201 -0.060023993 0.20364456 -0.2727521
00000000: 0f9b 233e ed2f 7bbf e1cc c7bd 2727 ffbf
00000010: 6310 83bf 68b9 873f bb38 393e 1229 403f
00000020: 7273 c0bf 6634 0a3e bd9f b33f 304e 69be
00000030: e992 523f 53db ae3d 7146 afbf afe8 ccbe
00000040: 88b6 5dbf 91bc 0b3f 888d 2c3e 798a ecbf
00000050: 88f6 02c0 e818 e5bf 7f10 903d a0b9 773e
00000060: 6c38 423f c05f d8bf eb31 efbf 6c2f 09bd
00000070: c4f6 69bd b8db 75bd 3388 503e 2aa6 8bbe

3.weight f4 [16, 32]
0.032795124 0.09532468 0.07277073 0.10562818 0.16057046 -0.28708148 -0.050375655 -0.3453937
0.12744647 -0.06127183 -0.32741243 -0.02383465 -0.21013027 -0.060030036 0.0064384877 0.009842602
0.6799867 -0.1754359 0.07970927 0.04019994 0.01303634 0.013700987 -0.08568685 -0.05662733
-0.19613291 -0.102949396 -0.066155784 -0.010745242 0.08868805 0.014976145 0.15898357 0.06750383
-0.065445095 -0.14031799 0.1247177 -0.16090369 -0.05784177 -0.04563217 -0.13295355 -0.10753929
-0.06048503 -0.08510214 -0.068332724 0.012387682 -0.0971954 -0.15326355 0.050642163 -0.046455387
0.015969347 -0.22426963 -0.08966126 -0.09783022 0.09894973 -0.071965456 -0.16327666 0.0044665574
-0.054115757 -0.065460876 -0.2981195 0.044833045 0.009483916 -0.06524677 -0.10323799 0.0458052
-0.15903066 -0.17809029 -0.06423838 -0.2142667 0.03297695 -0.085299775 -0.058052953 -0.12176055
0.05823681 0.14304686 -0.22147106 -0.06599204 -0.060430918 -0.013876372 0.015338863 0.0027625298
0.116672605 -0.16788602 0.12718663 0.058604244 -0.23566112 0.10985095 0.092148475 -0.06278784
-0.08956473 -0.049855083 0.13948928 -0.09646125 0.090383045 -0.15236793 -0.06941309 -0.069850095
-0.026764663 -0.18234752 -0.060518455 0.2689344 0.2691014 0.08104476 0.006111687 -0.037817214
-0.08149453 0.10455712 0.005920222 -0.08829788 -0.10305356 0.0869441 0.0013048148 0.016878797
0.1648652 -0.17337057 0.11862877 0.08018944 -0.011198303 0.0391774 -0.13456352 -0.24240829
0.022780623 -0.022527985 -0.0019310693 0.00041336354 0.08375501 0.016038714 -0.15815088 0.06261006
0.11184932 0.07816292 -0.124651104 -0.067408174 -0.26136553 -0.010222818 0.051248077 0.008689652
-0.19351923 -0.036966283 -0.013729489 0.07953643 0.4066055 -0.15006585 -0.13530248 -0.14131992
-0.35705426 0.41631708 0.15664127 -0.018331662 -0.0063413307 -0.3011751 -0.0044745184 0.6299019
0.010422513 -0.0033682652 -0.29259238 -0.0372896 0.018908046 0.024434697 -0.043089423 0.022279037
-0.0254549 -5.537385e-05 -0.06858537 -0.057278357 -0.23210983 -0.003601922 -0.11269374 0.18011393
-0.032611612 -0.03262868 0.00863019 -0.008294223 0.534106 0.15768489 -0.1853955 -0.057107255
-0.11480621 0.73059845 -0.023942305 -0.02775172 -0.024965685 -0.05911145 0.06535414 0.4789267
-0.009354557 0.00685847 -0.07451045 0.15702926 0.040157545 0.11500845 -0.14218195 -0.10422835
0.08927232 0.02905083 -0.08766174 0.056809522 -0.075410806 -0.18303275 0.02033413 -0.27485985
0.120831825 0.043801997 -0.42283997 0.04478957 -0.14360945 -0.049505513 0.0045805634 0.06221041
0.5946823 -0.3472028 -0.15577514 0.011366008 -0.2825489 -0.043032255 0.10709341 -0.21830505
-0.02536481 -0.009549677 0.028109448 0.018830828 0.022969846 -0.020207927 0.032823652 -0.13975538
-0.004967883 -0.0005422077 0.054034997 -0.11083514 0.17480971 -0.27855834 -0.0062651807 -0.27865496
-0.04382379 -0.11240368 -0.26241976 -0.13092677 -0.068029 0.14268225 -0.026343834 -0.047654133
0.4596201 -0.15527104 -0.089984685 -0.015713938 0.13905948 0.10786382 -0.114787 -0.129303
-0.1462514 -0.02155132 0.017673811 0.05663566 0.12859806 -0.10837793 -0.0844938 -0.08657504
00000000: 2e54 063d 9639 c33d d208 953d 9653 d83d
00000010: 956c 243e 58fc 92be b456 4ebd 71d7 b0be
00000020: 5481 023e 2cf8 7abd 9aa2 a7be e240 c3bc
00000030: 642c 57be 0ee2 75bd f3f9 d23b dd42 213c
00000040: 9c13 2e3f 78a5 33be 9d3e a33d b1a8 243d
00000050: 5f96 553c 1b7a 603c 967c afbd 0ff2 67bd
00000060: 11d7 48be 22d7 d2bd af7c 87bd d00c 30bc
00000070: 15a2 b53d 815e 753c 97cc 223e 733f 8a3d
00000080: 1408 86bd 85af 0fbe fe6b ff3d f0c3 24be
00000090: 7eeb 6cbd cce8 3abd fa24 08be 8f3d dcbd
000000a0: 27bf 77bd 084a aebd 07f2 8bbd b4f5 4a3c
000000b0: 620e c7bd 1ff1 1cbe 286e 4f3d 0148 3ebd
000000c0: 26d2 823c f0a6 65be 53a0 b7bd 365b c8bd
000000d0: 28a6 ca3d a062 93bd ff31 27be 335c 923b
000000e0: 7ca8 5dbd 5a10 86bd 1ea3 98be dba2 373d
000000f0: 6d62 1b3c 19a0 85bd 706e d3bd 3c9e 3b3d
00000100: efd8 22be 4d5d 36be 698f 83bd bb68 5bbe
00000110: d712 073d a6b1 aebd efc8 6dbd 985d f9bd
00000120: b989 6e3d e07a 123e 4fc9 62be d626 87bd
00000130: 6986 77bd b959 63bc db4f 7b3c 8f0b 353b
00000140: 0cf2 ee3d 50ea 2bbe 363d 023e 010b 703d
00000150: 2651 71be 89f9 e03d 57b8 bc3d e996 80bd
00000160: b76d b7bd d834 4cbd 47d6 0e3e 7a8d c5bd
00000170: bf1a b93d 5706 1cbe 7328 8ebd 910d 8fbd
00000180: 9141 dbbc 4fb9 3abe 33e2 77bd c5b1 893e
00000190: a9c7 893e ccfa a53d 8c44 c83b 39e6 1abd
000001a0: 9be6 a6bd 0b22 d63d 6cfe c13b 85d5 b4bd
000001b0: bf0d d3bd c00f b23d 5206 ab3a 6745 8a3c
000001c0: 6cd2 283e 0e88 31be a4f3 f23d 5c3a a43d
000001d0: 1679 37bc 7b78 203d 05cb 09be e139 78be
000001e0: 6e9e ba3c 9c8c b8bc ef1b fdba b7b8 d839
000001f0: bf87 ab3d 9f63 833c 4ef2 21be b439 803d
00000200: 4211 e53d e213 a03d 1449 ffbd 4c0d 8abd
00000210: b4d1 85be 9b7d 27bc 81e9 513d 0b5f 0e3c
00000220: e829 46be f569 17bd a7f1 60bc ffe3 a23d
00000230: 992e d03e ddaa 19be bc8c 0abe 2bb6 10be
00000240: d1cf b6be 8327 d53e 9266 203e 482c 96bc
00000250: f0ca cfbb 9f33 9abe fb9e 92bb 4041 213f
00000260: 30c3 2a3c 1dbe 5cbb abce 95be fbbc 18bd
00000270: 0ce5 9a3c 462b c83c 897e 30bd 8782 b63c
00000280: cb86 d0bc 3841 68b8 7d76 8cbd b69c 6abd
00000290: 33ae 6dbe 390e 6cbb facb e6bd c96f 383e
000002a0: c193 05bd a7a5 05bd a465 0d3c 7ee4 07bc
000002b0: 2cbb 083f 2678 213e 51d8 3dbe 4ce9 69bd
000002c0: 851f ebbd 8008 3b3f a722 c4bc 9357 e3bc
000002d0: d684 ccbc d91e 72bd 64d8 853d e135 f53e
000002e0: db43 19bc 04bd e03b ef98 98bd 47cc 203e
000002f0: 3d7c 243d 8d89 eb3d 2598 11be ac75 d5bd
00000300: 68d4 b63d 02fc ed3c 0088 b3bd 1ab1 683d
00000310: fb70 9abd f06c 3bbe c393 a63c 6eba 8cbe
00000320: ad76 f73d b969 333d 7b7e d8be 4575 373d
00000330: 5b0e 13be 4bc6 4abd 8d18 963b 58d0 7e3d
00000340: 193d 183f 91c4 b1be 8583 1fbe 7e38 3a3c
00000350: 40aa 90be 9742 30bd ca53 db3d 5c8b 5fbe
00000360: ddc9 cfbc 4076 1cbc c945 e63c 1c43 9a3c
00000370: 422b bc3c 188b a5bc 1872 063d 091c 0fbe
00000380: a0c9 a2bb f122 0eba cd53 5d3d 89fd e2bd
00000390: 5101 333e 339f 8ebe 254c cdbb ddab 8ebe
000003a0: 9380 33bd e733 e6bd e25b 86be ab11 06be
000003b0: ca52 8bbd 4c1b 123e 06cf d7bc fb30 43bd
000003c0: 5353 eb3e 5fff 1ebe e449 b8bd 84ba 80bc
000003d0: 9c65 0e3e b5e7 dc3d 7215 ebbd 0168 04be
000003e0: edc2 15be 658c b0bc abc8 903c cbfa 673d
000003f0: 36af 033e 40f5 ddbd 160b adbd 414e b1bd

3.bias f4 [16]
-0.11334096 -0.076527245 0.41338682 -0.511566 0.311564 0.5638058 0.56929564 -0.49137017
0.4792153 -0.6929181 -0.7501554 -0.42528287 0.4249761 -0.5418682 -0.84996235 -0.6507601
00000000: 4e1f e8bd 51ba 9cbd 70a7 d33e fdf5 02bf
00000010: 5185 9f3e 9455 103f 5cbd 113f df94 fbbe
00000020: b55b f53e 1563 31bf 2f0a 40bf adbe d9be
00000030: 7896 d93e e0b7 0abf 2297 59bf 3798 26bf

6.weight f4 [8, 16]
0.12819383 0.05577265 -0.10311943 0.15643197 -0.0075321347 -0.16685118 0.16497487 0.1537544
-0.16828296 0.109336495 0.08055356 0.2345385 -0.037219815 0.28045318 -0.07667118 0.27165613
-0.066074625 0.05610714 0.23547882 0.14187784 -0.016863821 -0.08081912 0.024545556 -0.007941929
-0.10679967 -0.07927282 0.28551292 -0.044307426 -0.11436784 0.22870769 -0.084738754 0.37923405
0.11435602 -0.11721504 -0.040639862 0.1095109 0.026716074 -0.010491063 0.14986911 0.28536165
-0.0023657863 0.24157716 -0.056573115 -0.071967475 0.032853305 0.12469001 -0.0032789211 0.2780968
0.23878475 0.30650967 0.2131991 0.10649946 -0.0059912666 -0.27923897 0.22569372 0.20966083
-0.09520216 0.095971294 0.030417338 0.18435389 -0.046342626 0.25160956 0.12076742 0.33133882
0.2901278 -0.08237689 0.19391584 0.13169947 -0.013076276 -0.03053987 -0.061601873 0.15766454
-0.097527824 -0.11578363 -0.012435922 -0.07433029 -0.022362478 0.3235468 0.28502098 0.23620321
-0.27154586 -0.04828268 -0.28271952 -0.020246496 0.33027375 0.073986635 -0.13699368 -0.119334094
0.102082215 -0.15422826 -0.32229823 -0.22442478 0.09838045 -0.03454171 -0.23291568 -0.26180977
-0.33342093 -0.18458198 -0.3766753 -0.13120764 0.116931245 0.09806528 -0.44369835 -0.26188076
0.11091495 -0.2549959 -0.24553958 -0.31141844 0.16138937 -0.13501127 -0.2480227 -0.2602275
-0.25231576 -0.2769766 -0.5316672 -0.12908636 0.15462436 0.15204825 -0.42767006 -0.16751464
0.2109039 -0.17805618 -0.24556546 -0.3004332 0.2066839 -0.10339305 -0.22543953 -0.3401809
00000000: 3e45 033e dd71 643d 4830 d3bd b42f 203e
00000010: 20d0 f6bb 09db 2abe 2cef 283e cb71 1d3e
00000020: 5e52 2cbe d0eb df3d 44f9 a43d dc2a 703e
00000030: ce73 18bd 8f97 8f3e c805 9dbd 8316 8b3e
00000040: 2252 87bd 9ad0 653d 5c21 713e 6d48 113e
00000050: ff25 8abc 7f84 a5bd c313 c93c dd1e 02bc
00000060: c9b9 dabd ca59 a2bd c02e 923e b47b 35bd
00000070: b039 eabd 5932 6a3e 838b adbd f72a c23e
00000080: 7d33 ea3d 700e f0bd fc75 26bd 4047 e03d
00000090: abdb da3c b5e2 2bbc 4a77 193e ec1a 923e
000000a0: 4f0b 1bbb 0160 773e 36b9 67bd af63 93bd
000000b0: 3091 063d 7a5d ff3d 2be3 56bb b462 8e3e
000000c0: fd83 743e d6ee 9c3e dd50 5a3e 641c da3d
000000d0: 6352 c4bb 69f8 8ebe 411c 673e 54b1 563e
000000e0: 5af9 c2bd 998c c43d c82d f93c 44c7 3c3e
000000f0: c4d1 3dbd f8d2 803e e954 f73d 3ea5 a93e
00000100: a28b 943e 37b5 a8bd e091 463e 3adc 063e
00000110: e03d 56bc c02e fabc 3f52 7cbd d072 213e
00000120: abbc c7bd f81f edbd 0ac0 4bbc 7b3a 98bd
00000130: 8431 b7bc eda7 a53e 45ee 913e 41df 713e
00000140: 0f08 8bbe 0fc4 45bd 9dc0 90be fbdb a5bc
00000150: a419 a93e 4e86 973d 1248 0cbe 6f65 f4bd
00000160: 7b10 d13d 03ee 1dbe 4604 a5be 9ccf 65be
00000170: b07b c93d 9c7b 0dbd 7381 6ebe ee0b 86be
00000180: 26b6 aabe 0f03 3dbe 96db c0be 4c5b 06be
00000190: a679 ef3d 73d6 c83d 6e2c e3be 3c15 86be
000001a0: 6127 e33d d38e 82be ba6e 7bbe 3d72 9fbe
000001b0: 4143 253e 6540 0abe aaf9 7dbe 8a3c 85be
000001c0: 882f 81be e0cf 8dbe 571b 08bf 372f 04be
000001d0: d955 1e3e 89b2 1b3e 92f7 dabe f588 2bbe
000001e0: 31f7 573e 5c54 36be 8375 7bbe 61d2 99be
000001f0: f2a4 533e bcbf d3bd 9fd9 66be 312c aebe

6.bias f4 [8]
-0.14510095 -0.18744238 -0.22045408 -0.035550892 -0.25279 0.21105155 0.47737783 0.5363308
00000000: 5895 14be e5f0 3fbe b7be 61be d09d 11bd
00000010: b16d 81be e61d 583e de6a f43e fa4c 093f

9.weight f4 [2, 8]
-0.31276634 -0.17690249 -0.22297677 -0.3109923 -0.20969242 0.26711765 0.1124331 0.33160308
-0.065812774 0.36903462 0.3286479 -0.08040462 0.2119227 -0.3644143 -0.39497367 -0.052473936
00000000: e922 a0be ed25 35be 0654 64be 623a 9fbe
00000010: 9cb9 56be a5c3 883e 5343 e63d e1c7 a93e
00000020: d9c8 86bd 1bf2 bc3e 8a44 a83e 2dab a4bd
00000030: 4402 593e 8394 babe fd39 cabe e9ee 56bd

9.bias f4 [2]
0.49695924 -0.16726732
00000000: 7171 fe3e 2048 2bbe
